True
Percent of vocabulary covered by GloVe: 0.35926283669571707
Model: "sequential"
_________________________________________________________________
Layer (type)                 Output Shape              Param #
=================================================================
embedding (Embedding)        (None, 1000, 50)          4555300
_________________________________________________________________
conv1d (Conv1D)              (None, 996, 128)          32128
_________________________________________________________________
global_max_pooling1d (Global (None, 128)               0
_________________________________________________________________
dense (Dense)                (None, 10)                1290
_________________________________________________________________
dense_1 (Dense)              (None, 3)                 33
=================================================================
Total params: 4,588,751
Trainable params: 4,588,751
Non-trainable params: 0
_________________________________________________________________
Epoch 1/10
4120/4120 [==============================] - 169s 41ms/step - loss: 0.7855 - accuracy: 0.5521 - val_loss: 0.8426 - val_accuracy: 0.5934
Epoch 2/10
4120/4120 [==============================] - 166s 40ms/step - loss: 0.5922 - accuracy: 0.7171 - val_loss: 0.8865 - val_accuracy: 0.6102
…
